assets/model.tflite (tflite, 449184 bytes, 50 tensors)

arith.constant2 f4 [1, 2760]
000000 db 49 bf 3c 2d 2c d1 3c 0d d8 06 3d 11 20 11 3d
       0.023350647 0.02553376 0.032920886 0.03543097
000010 ae a5 0b b6 9c 89 13 3c f7 37 e7 bc 92 11 22 3c
       -2.0809052e-06 0.009004977 -0.028224928 0.009891884
000020 c9 49 85 bc 60 18 2d bb 8e 3d 02 bc 42 fd 32 3b
       -0.016270535 -0.0026412234 -0.007949246 0.0027311598
000030 aa ec 09 3c 3f 34 21 3c c5 81 4e 3c 5f 03 30 3b
       0.0084182415 0.009839117 0.012604182 0.0026857478
000040 0b 9d e2 bc cd 19 38 3a 0f 37 b5 36 0e ce 6c 3c
       -0.027662775 0.00070228876 5.40063e-06 0.014453424
000050 3b 7d 74 bc 69 51 73 bc 12 25 39 bc 0b 84 18 bd
       -0.014922435 -0.014850953 -0.011300342 -0.0372353
000060 01 85 e2 bb b8 96 a3 3c 60 7e ec 3c 8f 41 c1 3c
       -0.006912828 0.01996933 0.028868854 0.023590831
000070 8f df a3 bc 03 ef b7 bc 06 76 53 3c ec d1 d4 3b
       -0.020004062 -0.022452837 0.012906557 0.006494751
000080 18 2c ba b5 f9 7c d5 3c e0 bf f9 3c 05 16 9d bc
       -1.3870913e-06 0.026060568 0.030487001 -0.019175539
000090 18 dd 33 b7 31 b4 1b 3d 27 65 63 3c 45 51 a9 bc
       -1.0720709e-05 0.03801364 0.013879097 -0.020668635
0000a0 4d 2c 31 b7 97 ed 4c 36 e7 33 bb ba 8f dc 00 b7
       -1.0560337e-05 3.0536664e-06 -0.0014282436 -7.680747e-06
0000b0 b0 43 cd 3c 92 b3 47 bc a2 b3 12 3d 84 2a 0e bc
       0.02505669 -0.012188809 0.035815842 -0.008677129
0000c0 54 93 19 3d 45 a8 07 bd 36 7f b8 bc 5c cd 15 bc
       0.03749402 -0.03311946 -0.022521596 -0.0091432
0000d0 f4 39 10 bd 21 cd 69 3c 16 9c ff bb f0 af 8e 37
       -0.03521152 0.014270098 -0.0078005893 1.7009646e-05
0000e0 62 be 84 b7 8f c0 ba b5 a5 f8 d9 3b 65 e5 a2 bc
       -1.582428e-05 -1.3914122e-06 0.006651955 -0.019884774
0000f0 17 41 ac b7 2c de 78 3c a5 10 7d ba b6 9b d8 bb
       -2.0534308e-05 0.015189689 -0.00096536643 -0.006610359
000100 a7 0c ef bc 7e 43 14 3c 0b ee 9c b4 f2 81 2a bb
       -0.029180838 0.0090492945 -2.9230463e-07 -0.0026017395
000110 b4 95 70 3b 6f 9b d6 bc 4f 3e 01 3d b6 d2 0b 3a
       0.0036710324 -0.026197163 0.031553563 0.00053338276
000120 f6 18 97 3c a9 58 99 3c 79 7a 0b 3c ab 67 87 bb
       0.01844452 0.018719034 0.0085130865 -0.004132231
000130 fa f0 74 3b 48 ea 01 bd 6b 19 90 3c 28 8d d0 bc
       0.0037375079 -0.03171757 0.017590245 -0.025457934
000140 70 6d 06 3d 7b 52 ce bb 20 eb 92 3c d3 f4 cf bb
       0.03281921 -0.0062964535 0.017934382 -0.006346324
000150 aa 7d c7 bc 72 d2 60 bc c2 10 16 3d f6 df 06 3d
       -0.024351913 -0.013722049 0.036637075 0.03292843
000160 56 d7 e4 3c 62 dd 0b bd 7a 47 47 3a 37 52 ed b7
       0.027934711 -0.034146674 0.00076018984 -2.8290886e-05
000170 35 ad cb bc 3d e8 75 3c 55 6b bc bc e0 36 18 3a
       -0.024862865 0.015008983 -0.023000399 0.0005806517
000180 d5 1e 62 3c a4 cb e5 b9 95 02 17 bd 01 33 e8 bc
       0.013801296 -0.00043830008 -0.036867697 -0.028344633
000190 a9 4e dc 3c 42 ea e8 b8 8f 7d ad 3a 19 d0 6e 3c
       0.026892977 -0.00011106256 0.0013236272 0.014575982
0001a0 4d f4 86 3c 8b fb 99 36 fd 0c d5 3c e9 f6 1d 3d
       0.016473914 4.589039e-06 0.02600717 0.03856555
0001b0 3b fa 9e bc 5e e0 d4 bb 33 5e aa bb 44 7f c5 3c
       -0.019406429 -0.006496473 -0.0051992177 0.024108537
0001c0 94 6e 89 3c 36 e8 75 3c b7 91 bd bb 31 50 14 3c
       0.01677636 0.015008977 -0.005785193 0.009052322
0001d0 39 b2 98 3c 8e c7 bc 3c 45 77 3f 3c 0f 2d 38 ba
       0.01863967 0.023044374 0.011686151 -0.0007025757
0001e0 a5 63 f0 36 ea 22 fc 3c 5f 12 79 37 8a 85 d5 bc
       7.1641575e-06 0.030778367 1.4845834e-05 -0.026064653
0001f0 b2 db 83 b2 e5 83 04 37 6a 16 48 36 02 1b 3b b5
       -1.5350313e-08 7.898522e-06 2.981537e-06 -6.970223e-07
000200 9b 7e 06 3d d4 db 95 bc 03 cd db b6 d3 43 cd bc
       0.032835584 -0.018293299 -6.550575e-06 -0.025056755
000210 5c 99 89 bc 4d 6c 86 bc 85 63 23 3c b3 da 1a 37
       -0.01679676 -0.016409064 0.009972458 9.230035e-06
000220 01 35 e7 3c ba d9 0c bc 55 64 bd 3c 18 a5 44 3b
       0.028223516 -0.008596832 0.023119131 0.003000563
000230 d7 ed cb ba 72 d3 16 bd ad 84 12 bd 62 ce c4 3c
       -0.0015558553 -0.036822744 -0.03577106 0.024024192
000240 1a f0 61 b7 a2 70 36 bb a7 20 04 bd 43 5e a3 3b
       -1.3466948e-05 -0.002783813 -0.032257702 0.004985602
000250 1a 9b eb 3a 1c 8e e8 39 b4 a3 0b 3d 39 02 a3 b7
       0.0017975301 0.00044356368 0.034091666 -1.943215e-05
000260 ab 94 01 bd 0d 47 d4 bc 99 61 e6 3b 0d 87 04 bd
       -0.03163592 -0.025912786 0.0070306775 -0.032355357
000270 0b 72 f9 3b ec e9 8f bc da 7d 0e 3d 6a 26 d2 bc
       0.007612472 -0.017567597 0.03478799 -0.025653083
000280 b5 c3 b6 bb cc 4b 4b ba 54 7f 50 37 c9 52 e8 39
       -0.0055775293 -0.000775513 1.2427412e-05 0.00044312168
000290 08 64 76 b9 3e 5b 3c bc 69 08 01 bc 68 39 07 bd
       -0.00023497653 -0.011496363 -0.00787554 -0.03301373
0002a0 1a 1c 99 3b 0d 57 1b 37 a0 86 45 3c 96 24 fe bc
       0.0046725394 9.258988e-06 0.012056023 -0.031023305
0002b0 80 5a b4 bb c3 5d 14 bd 14 28 4b bc cd 70 00 bd
       -0.0055039525 -0.03622223 -0.012399692 -0.031357575
0002c0 ef ba bd 3c b1 f4 f3 bc 69 56 02 39 cf b7 58 3c
       0.023160426 -0.029779764 0.00012429956 0.013227417
0002d0 36 cc 9a bc 90 74 aa 3b 2f 5e 0e bd c6 c3 42 3b
       -0.018896203 0.0052018836 -0.03475779 0.002971874
0002e0 e5 8f 72 bc c2 30 e0 b8 f5 02 d1 bc a3 31 9a bc
       -0.014804815 -0.00010690234 -0.025514105 -0.018822497
0002f0 c0 15 b9 bc ec 31 13 3d 5f f5 05 3d 7a a1 fe b6
       -0.022593379 0.03593628 0.032704707 -7.5885882e-06
000300 38 c4 9d bc 2c 13 09 37 78 12 b7 bc 7e da 69 3c
       -0.019258603 8.1703e-06 -0.022347674 0.014273284
000310 8c de b6 3b c9 a9 11 bd 91 fc 81 3c 85 0a f6 b6
       0.005580729 -0.03556231 0.015867503 -7.332596e-06
000320 65 b6 2a b7 53 f5 a2 36 61 82 4d bb 30 53 03 3c
       -1.0175257e-05 4.8565357e-06 -0.003135823 0.008015439
000330 01 f1 26 bc 28 2f 08 bd 22 72 0d 3d 37 68 e5 bc
       -0.010189296 -0.033248097 0.034532674 -0.028003795
000340 a7 63 07 bd fc f1 67 3c 01 45 d5 36 b3 cd a3 3c
       -0.03305402 0.014156815 6.355928e-06 0.019995546
000350 a6 c8 d7 35 10 86 62 3b 2a 64 a2 35 9e 62 bd bc
       1.6077145e-06 0.003456477 1.2099092e-06 -0.023118313
000360 de bf a1 bb 00 42 d2 35 49 94 0a 3d fe cd dd 3c
       -0.0049362024 1.5665428e-06 0.033832822 0.027075764
000370 a5 73 7e 3c 85 21 f6 bc d4 cd 2d 3c 66 f0 3f bc
       0.0155305015 -0.03004528 0.010608155 -0.01171503
000380 a7 f2 18 b4 df 12 6e 3c 3d 0f 25 3c 03 f8 01 3d
       -1.424438e-07 0.014530866 0.010074434 0.031730663
000390 96 fe 80 3b 4f 1c e2 bc fd a4 0c bd f5 b9 0c bd
       0.003936599 -0.02760139 -0.034337033 -0.03435703
0003a0 16 b4 05 3d 34 8e fe 3c 63 e0 91 bc 87 20 24 bb
       0.032642446 0.031073667 -0.017807191 -0.0025043802
0003b0 2d 3d ca b6 30 18 88 b6 15 59 37 3c e8 e3 a2 bc
       -6.027191e-06 -4.0559316e-06 0.011190672 -0.019884065
0003c0 39 35 b9 ba af 67 0d 3c 82 46 f1 bb da c8 ba 3a
       -0.0014130241 0.008630677 -0.0073631415 0.0014250532
0003d0 32 db 2a 3c 89 81 b6 3c 00 d2 8c 36 47 45 14 3d
       0.010428237 0.022278564 4.1967724e-06 0.03619888
0003e0 5f 9a 97 bc 21 74 10 bd ff eb ff bc 90 ae 12 3c
       -0.018506227 -0.035267 -0.031240461 0.008952752
0003f0 e5 e2 7f 3a 72 5b f5 3c 02 23 c6 bc a6 80 a4 3c
       0.0009761288 0.029950831 -0.024186615 0.020080876

arith.constant3 f4 [2760, 1]
000000 07 88 c8 bc 45 ad 52 3e ac 2f 66 be 5a ea 50 be
       -0.024478925 0.2057391 -0.22479123 -0.20401898
000010 6e 7f 71 3e 28 77 47 3e 03 3a c2 3d 5b 71 51 3d
       0.23583767 0.19479048 0.09483721 0.051133495
000020 67 61 07 bd 6c 5b 53 be 0a b4 41 3e 84 93 16 be
       -0.033051874 -0.20640343 0.18916336 -0.1470471
000030 7f aa 41 3e 32 a5 ba bd 99 2b 04 3e c5 89 d6 bd
       0.18912695 -0.0911354 0.12907256 -0.10475496
000040 9e 0d dc 3c 27 60 5e 3e 14 55 00 be 37 30 5e 3e
       0.026861962 0.21716367 -0.12532455 0.2169808
000050 a2 a0 40 be 5a f4 30 be fc b0 0f bc 05 ab 39 be
       -0.18811277 -0.17280713 -0.008770224 -0.18131645
000060 b3 82 cd 3c 77 8c 66 be 88 74 48 be f4 44 0f bd
       0.025086736 -0.2251452 -0.19575703 -0.03497787
000070 96 fa 24 3d 40 4b 7b 3d 8b 68 4d 3c 2e fd 41 bd
       0.04027804 0.06135106 0.012537132 -0.04736059
000080 cb 7f 1d 3e cd 2b 2d 3e 7d 9d 90 bd 87 55 4e be
       0.1538078 0.1691124 -0.070612885 -0.20149814
000090 ea f8 6c 3e 6d 5c 57 be 18 2e 3d 3e 6a 11 62 3e
       0.23141828 -0.21031351 0.18474615 0.22076955
0000a0 e8 b7 58 3e 0e 8b 1e bd 9b ee 31 3e d3 7d 63 3e
       0.21163905 -0.03870683 0.17376177 0.22215967
0000b0 a4 87 56 3d 61 7a e2 3d 20 79 68 bd 8a 0e 2e 3e
       0.05237545 0.11058498 -0.05675614 0.16997734
0000c0 20 14 df bc 7f d4 b1 bd a4 1f 58 be 94 ce 3b 3e
       -0.027231276 -0.086831085 -0.2110582 0.18340522
0000d0 1b ac 5d 3d 4e da 34 3e 86 62 1f be 22 9c a9 3d
       0.05411921 0.17661402 -0.15564927 0.08281733
0000e0 4f 52 19 3e 72 fd b7 3c 33 99 d1 3d f4 63 fe bd
       0.14972804 0.02245972 0.102342986 -0.12421408
0000f0 94 fc 2a 3e e6 bd 08 be 66 4e f2 3d cc d7 60 3d
       0.16697913 -0.1335369 0.118313596 0.0548933
000100 50 e5 e6 3d d0 04 f0 bd 9e cf 50 3b 22 df 33 3e
       0.11274207 -0.11719668 0.003186203 0.17565587
000110 ee 2b 28 3e 30 cf 9f bd 92 07 ab 3d 5b 6a ed 3d
       0.16423008 -0.0780319 0.08351053 0.11592551
000120 aa b4 f4 bd 17 53 3a be 6c c2 66 bd a7 68 53 be
       -0.119485214 -0.18195759 -0.05633776 -0.2064539
000130 f9 8d 53 bd 0b c3 59 3e f6 b9 6e 3e 94 3d 8c 3d
       -0.051649068 0.21265809 0.23313126 0.068476826
000140 d6 0d 13 3e 6d 31 67 3d 2c 42 b4 3d 84 eb 1d 3e
       0.14360747 0.05644362 0.08801684 0.15421873
000150 26 34 29 be b7 06 3c be c6 88 59 be c3 91 0d 3e
       -0.165238 -0.18361937 -0.21243581 0.13825135
000160 01 c5 65 be f4 92 89 bd b5 93 2b 3d e0 00 4c 3e
       -0.22438432 -0.06717482 0.04188891 0.19922209
000170 bc 08 5e 3e a8 25 0f 3e 90 50 46 3e f6 45 0b be
       0.2168302 0.13979208 0.1936667 -0.13600907
000180 f4 6d 51 3e 2e b3 81 39 1f 94 0e be 4e 6b bc 3d
       0.204521 0.00024738297 -0.13923691 0.09200154
000190 e2 f4 36 be 0e ed 1b be e5 2e b7 3d 17 8e 1e 3e
       -0.17866853 -0.15227148 0.08944491 0.1548389
0001a0 51 d4 dd bd 46 4e f3 bd ba a4 dd 3c a6 e9 3f be
       -0.10831512 -0.11880164 0.027056087 -0.18741474
0001b0 80 a2 27 3e 94 31 f0 bd 5a c7 33 be 39 fd 48 3e
       0.16370583 -0.11728206 -0.17556515 0.19627847
0001c0 4c 64 9c 3d 1a 17 df 3d a4 2e 66 3e 21 f9 36 3d
       0.076363176 0.10893078 0.2247873 0.04467118
0001d0 32 f7 1a be 0b 6a 08 3e e5 12 70 3e ed 53 56 3e
       -0.1513336 0.13321702 0.23444708 0.20930453
0001e0 a4 ea 1b be 41 8e 75 3e 3e c5 50 be 03 ef 3b be
       -0.15226227 0.23980047 -0.20387742 -0.18352894
0001f0 df a2 28 bb a7 c0 6b be 02 91 64 3e 9d 9d 59 3d
       -0.0025731844 -0.2302271 0.22320941 0.053128827
000200 6b 05 4b 3e 7e 39 42 3e 22 51 27 3c 1f 77 46 be
       0.19826286 0.18967244 0.010212215 -0.19381379
000210 82 10 a2 3d 36 e2 b6 3d eb 26 28 be 7d 73 4f be
       0.07913305 0.08929865 -0.16421096 -0.20258899
000220 0a e9 d7 bc 09 bc 3a 3d 43 02 40 be cb 2f 25 be
       -0.026356239 0.04558948 -0.18750863 -0.16131513
000230 c2 54 4b 3d 94 5e 68 3e f8 9a 6f 3d 51 b0 12 be
       0.04964138 0.22692329 0.0584974 -0.14325072
000240 e8 6d 4a 3e 68 39 4c 3d f9 97 84 3d ee b8 57 3e
       0.19768488 0.049859434 0.06474299 0.21066639
000250 8b cd 57 be bc 3d 11 3e 19 db 65 be be cd 5d 3e
       -0.21074502 0.14183706 -0.2244686 0.21660516
000260 f4 b3 4c be a6 b4 f1 bd b5 19 7a bc ca 4f 81 bd
       -0.19990522 -0.11802034 -0.015264918 -0.06314047
000270 9e 37 26 be 70 01 3e be 9a 2a bb bd f6 11 21 3e
       -0.16232154 -0.18555236 -0.09138985 0.15729508
000280 c7 ba f3 3d 3a 5f 98 3d 36 35 55 be e2 ed c2 3d
       0.11900859 0.07440038 -0.2082108 0.09518029
000290 e1 97 ce 3d 51 03 87 bd 1b 36 58 be 8e e7 8e bd
       0.10087562 -0.065924294 -0.2111439 -0.06977759
0002a0 ef 81 b6 bd bf 06 3f be 0c e0 ce bb e5 4b b0 bd
       -0.089115016 -0.18654917 -0.0063133296 -0.08608226
0002b0 12 3e a7 3d 1a dd d0 3c 5c 36 84 bd 32 35 28 3e
       0.08166136 0.025496054 -0.06455681 0.16426542
0002c0 4d 78 8b 3d 3f 5d 38 3e 49 23 2b 3e 5f 8a 56 bd
       0.06810055 0.1800432 0.16712679 -0.052378055
0002d0 7c ad 01 3d 58 5e fd 3c 0a 61 55 be 8a 5c b3 3d
       0.03165959 0.030928776 -0.20837799 0.08757885
0002e0 cf 49 b9 bd 50 7b 57 3e 73 67 d1 bd 8b 3b 13 3e
       -0.09047281 0.21043134 -0.102248095 0.14378183
0002f0 53 dc 34 be ef be f8 3d 3c da 39 3e ed a7 6a be
       -0.17662172 0.12145793 0.18149656 -0.22915621
000300 2d 84 0e 3e 05 89 1c be bf de 21 3e f6 b0 0a be
       0.13917609 -0.15286644 0.15807627 -0.13544068
000310 0f e6 c1 bd 6b 80 4e be 09 fa 1d be 59 2e c6 3d
       -0.09467708 -0.20166175 -0.15427412 0.09676809
000320 96 c3 14 3e bb 0f 5f 3e 09 bf da 3d 81 9c 85 bd
       0.14527735 0.21783344 0.10680968 -0.065239914
000330 88 fe da 3d fc 33 63 be 18 78 62 3d 98 2f e8 bd
       0.10693079 -0.22187799 0.05529031 -0.11337203
000340 f0 24 38 be ec 16 39 3e 53 0c ec bd 31 bb 0d be
       -0.1798284 0.1807515 -0.11525788 -0.13840939
000350 6a 91 63 be 5b 29 57 bc fd db b0 bd 6b 36 f5 3d
       -0.2222344 -0.0131324185 -0.086357094 0.1197327
000360 6e 72 0e be d0 41 2f 3e 1f b9 3e bd 23 c2 48 3e
       -0.13910839 0.17114949 -0.046563264 0.19605307
000370 98 13 80 bd f5 a4 4e be c9 32 4d be d0 20 b3 bd
       -0.06253737 -0.20180114 -0.20038904 -0.08746493
000380 c8 d4 85 bb fd 32 94 3c 99 f6 83 3d 93 f9 dd 3d
       -0.0040842034 0.01809072 0.06443519 0.10838618
000390 9c d1 4c 3d 78 e4 99 bd f9 f7 86 3d 18 3b 3d 3e
       0.050004587 -0.0751428 0.06590266 0.18479574
0003a0 58 1b 60 be 45 03 23 bd 28 89 a7 bc 42 e0 c0 bd
       -0.21885431 -0.03979804 -0.020451143 -0.09417774
0003b0 3c 2b b8 3d c4 aa 04 3e cf 82 31 be 08 5f 22 3d
       0.08992621 0.12955767 -0.17335056 0.03964141
0003c0 32 e0 0b 3e 91 38 48 3e 87 36 8c bd 35 d0 69 3e
       0.13659742 0.19552828 -0.06846338 0.22833331
0003d0 12 77 21 be c1 fc fd bc a0 e2 32 be 48 7c 88 3d
       -0.15768078 -0.031004312 -0.17469263 0.0666433
0003e0 80 18 a6 3d 47 f5 fe bc 27 44 25 3e b2 5e 0f 3e
       0.08110142 -0.031122817 0.1613928 0.14000967
0003f0 e8 d4 46 3d e0 31 7f bd 7f c3 e9 bd 82 d0 73 3e
       0.048542887 -0.062303424 -0.11414241 0.23810008

arith.constant4 f4 [2760, 1]
000000 ea 03 bb 3d 60 f0 16 be a2 32 bb bd ab f2 14 be
       0.09131606 -0.14740133 -0.09140517 -0.14545695
000010 04 38 22 3d a0 f5 7c bd e1 45 2d 3e f3 79 57 3e
       0.039604202 -0.061757684 0.16921188 0.21042614
000020 7c 36 6c 3d b1 a9 31 be d2 78 62 be ab 79 29 3e
       0.057669148 -0.17349888 -0.22116402 0.16550319
000030 68 df 32 bd c2 51 b3 bd 50 63 88 bd 5a 6e f4 3d
       -0.043670088 -0.087558284 -0.06659567 0.119351104
000040 2c 86 86 bd 0e 04 5a be 35 39 57 3e 64 55 3f 3d
       -0.0656856 -0.21290609 0.21017917 0.046712294
000050 0c ba 75 3d 0c 98 ba bd 78 d2 21 be b2 36 d3 3d
       0.05999188 -0.09111032 -0.15802944 0.10313167
000060 a0 06 28 3c 66 ed 1f be f3 ff 0d 3e 60 bc 82 bd
       0.010255486 -0.15617904 0.13867168 -0.06383586
000070 1b a2 1d 3e 60 11 75 bc 74 21 14 3d 30 db 42 be
       0.1539387 -0.014957756 0.036164716 -0.19028926
000080 06 46 07 be f0 14 23 bc 83 f5 4a 3e 1f 9d 6a 3e
       -0.13210306 -0.009953722 0.19820218 0.229115
000090 a2 99 08 be 6a c5 d1 bd 07 2d 17 3e ce 4b c1 bd
       -0.13339856 -0.10242732 0.1476327 -0.09438287
0000a0 70 21 f0 bc e6 f1 13 be 50 c5 56 be 20 5a 59 bd
       -0.02931282 -0.14447746 -0.20973706 -0.053064466
0000b0 a4 82 7b bd d0 c1 ba bc 50 f7 47 bd fc ac 56 3d
       -0.061403885 -0.022797495 -0.04881984 0.052411065
0000c0 d5 7f 13 be 37 c3 4d 3e 1c 20 4d be a9 ff 05 3e
       -0.14404233 0.20094 -0.2003178 0.13085808
0000d0 af f6 6f be 00 1a f7 b9 36 ad d0 3d d5 01 2f be
       -0.23433946 -0.00047130883 0.10189287 -0.17090543
0000e0 3f 23 33 3e 1a 24 cb 3d 80 9d ae ba 51 f7 43 be
       0.17493914 0.09918995 -0.0013322085 -0.19137312
0000f0 c9 6f 60 3e 5c 89 38 be 3f 7f 5c 3e f8 c3 9c 3c
       0.21917643 -0.18021148 0.21532916 0.019136414
000100 0c 4f 32 3d 6a bd 9f bd d9 59 43 3e 0a 57 56 be
       0.043532416 -0.077998 0.19077243 -0.2093164
000110 ed 72 54 3e 86 5c 89 3d de ab 1c be b2 6c 73 be
       0.20746966 0.067071006 -0.15299937 -0.23771933
000120 e6 fc df bd 20 87 b6 bb 49 2f 08 3e 38 14 cc bc
       -0.109369084 -0.0055703074 0.13299288 -0.024911985
000130 9c 3a 58 bd 48 10 3d bd 00 08 fd 3a 8a 84 84 3d
       -0.05279027 -0.046158105 0.0019304752 0.06470592
000140 63 85 2a 3e 54 27 88 bd a2 78 22 be 67 3c 25 3e
       0.16652445 -0.06648126 -0.1586633 0.16136323
000150 2d 3d 5d 3e 62 18 cb 3d ef 17 2d 3e 4b 9e 2e 3e
       0.21605368 0.0991676 0.16903661 0.17052571
000160 c6 74 9c bd 7a 18 f0 3d c8 1c 37 be a8 73 d4 bd
       -0.0763946 0.117234185 -0.17882073 -0.10373622
000170 f7 ba 50 3e 5a 5d 83 bd 98 00 ee bc 2e 43 c0 bd
       0.20383821 -0.0641429 -0.029053017 -0.093878135
000180 59 86 67 3e 2d 48 58 3e 8e 66 cf bd 48 0b ff 3c
       0.22609843 0.21121283 -0.10126983 0.031133309
000190 00 92 d1 3b 11 9e 3f 3e 40 18 5f be 58 a2 d9 3c
       0.0063955784 0.18712641 -0.21786594 0.02656667
0001a0 68 8b aa bc 96 e5 f4 3d 1e e4 58 be 22 de bb 3d
       -0.020818427 0.119578525 -0.2118077 0.09173228
0001b0 91 82 46 3e f0 a4 53 3c 1c 49 1e bd c8 e4 40 be
       0.19385745 0.012917742 -0.03864394 -0.18837273
0001c0 49 09 06 3e 58 17 1a bd 78 0e e1 3c 13 11 fb bd
       0.1308948 -0.03761992 0.02747272 -0.12259116
0001d0 2e e7 02 be ec 30 ab bd 6d 0a 4a 3e e1 0e 5a 3e
       -0.127835 -0.083589405 0.1973054 0.21294738
0001e0 71 c2 5d 3e 6c 5a 1c bd 96 1a 82 3d 3c 03 b9 bd
       0.21656205 -0.03817217 0.06352727 -0.0903382
0001f0 d6 d1 fe bd 5d 01 50 be a4 66 d0 bd 5a 19 3b be
       -0.12442367 -0.2031302 -0.10175827 -0.1827139
000200 8e 88 92 3d 7e e1 be bd 4c 08 4a be 52 5c ee 3d
       0.07154952 -0.09320353 -0.19729728 0.116387025
000210 00 20 2b 39 04 2d 25 3d cf 8e 59 be f1 09 5b be
       0.00016319752 0.040326133 -0.21245883 -0.21390511
000220 1b 91 fa bd ac a5 57 bd ae 40 8e 3d 76 19 81 bd
       -0.12234708 -0.05264823 0.069459304 -0.063036844
000230 f6 8f 10 be 8f 2b 5d 3e 38 46 e5 3c 00 4a 9a b9
       -0.14117417 0.21598648 0.027987584 -0.00029428303
000240 8c 9c 26 be b6 3c f7 3d f8 26 d7 bc 5e 69 82 bd
       -0.16270655 0.120721266 -0.026263699 -0.063677534
000250 17 fd 32 3e 20 51 1b 3c 4c 00 6d 3d 1f c5 6e 3e
       0.17479359 0.009479791 0.05786161 0.23317383
000260 4e 49 ca bd 38 06 c1 bc 6e 58 ed bd 56 cc ac bd
       -0.09877263 -0.023562536 -0.11589132 -0.084374115
000270 54 8e 25 3d f4 52 23 3d b3 9f 03 3e e0 93 4e bc
       0.040418938 0.039874032 0.12853889 -0.012608498
000280 30 2b 4a bc b5 8c 4c 3e 0a a4 f3 bd d8 8b a8 bd
       -0.012339398 0.1997555 -0.11896522 -0.08229798
000290 17 11 3e be 44 5b 17 3d ed cc 42 3e e8 f3 68 be
       -0.18561207 0.036952272 0.19023485 -0.22749293
0002a0 0a 94 85 3d 35 d5 0a 3e 57 b4 0e 3e ff 6f 0e 3e
       0.06522377 0.13557895 0.13935982 0.1390991
0002b0 eb 0b 3d 3e c5 9a 0b be 16 43 97 3d f0 0b bd bc
       0.18461578 -0.13633259 0.073858425 -0.023076981
0002c0 2a 48 ae 3d e0 55 f3 3b 64 89 90 bd f6 f1 3a be
       0.08509858 0.0074260086 -0.07057455 -0.18256363
0002d0 e6 c4 84 3d 85 e7 40 be 3f 7b 42 be 12 28 4f be
       0.06482868 -0.18838318 -0.18992327 -0.2023013
0002e0 07 00 32 3e 18 19 a3 bd c4 6d 0e be 02 84 b8 3d
       0.17382823 -0.07963771 -0.1390906 0.090095535
0002f0 97 d3 5b 3e 8a e0 61 be 00 a5 b4 3a 60 a8 48 be
       0.21467434 -0.22058311 0.0013782084 -0.1959548
000300 1c 1e 6d bd 23 4c 11 3e b4 f7 2d 3d 43 86 52 be
       -0.057890043 0.141892 0.042472556 -0.2055903
000310 38 d6 2e be 40 2e a6 bc 35 16 fe bd 00 6a 47 3b
       -0.17073905 -0.020285726 -0.124065794 0.003042817
000320 d4 eb 62 3d 1f 98 2f be a9 7b 21 3e 60 37 df bc
       0.055400684 -0.17147873 0.15769829 -0.027248085
000330 61 69 0a 3e 47 09 4f 3e 61 6a 2b 3e a4 9d e0 bd
       0.13516761 0.20218383 0.16739799 -0.109675676
000340 6e 30 90 3d 3b 65 13 3e 00 c6 22 bd 76 e0 53 be
       0.07040487 0.14394085 -0.03973961 -0.20691094
000350 2c 0c 4e 3d 1d 30 51 3e df 39 5f 3e b0 65 65 be
       0.050304577 0.2042851 0.2179942 -0.22402072
000360 cc 62 5b 3d be 69 71 be 00 20 10 3b 0d fb 5d 3e
       0.053561017 -0.23575494 0.002199173 0.216778
000370 29 fb 3c be 10 0f db bc 3e a0 34 be f5 16 4e 3e
       -0.18455185 -0.02674058 -0.17639253 0.20125945
000380 93 66 2e 3e e4 41 0c 3d 80 1d 12 be 74 02 30 be
       0.17031316 0.034242526 -0.14269066 -0.17188436
000390 e4 71 6b be 64 ff 4c 3d 34 40 1b 3d e4 cb 76 3d
       -0.22992665 0.050048247 0.037903026 0.06025304
0003a0 54 00 51 3d e5 fd 65 be c3 b9 69 be 28 a9 04 be
       0.051025704 -0.22460134 -0.22824769 -0.12955153
0003b0 b7 8a 41 be 08 84 c3 3c a2 d5 e4 bd 33 7d 0f 3e
       -0.18900572 0.023866668 -0.1117356 0.14012603
0003c0 2e 9c 9a 3d b7 a0 f1 bd 3e 4f c4 3d ed da 1d 3e
       0.0754932 -0.11798232 0.09585427 0.15415545
0003d0 7c 7a 0b 3d 68 b1 c7 bd 00 86 ad bd fd ac 1a 3e
       0.034052357 -0.097506344 -0.08472824 0.15105052
0003e0 c7 e4 66 3e e3 4d 11 3e c6 93 2c be 56 5b e6 3d
       0.22548209 0.14189868 -0.16853246 0.1124789
0003f0 61 df 52 3e d6 9f 9c bd a6 09 ec 3d 3e 42 c6 3d
       0.20593025 -0.07647674 0.11525278 0.096806034

arith.constant5 f4 [2760, 1]
000000 3a 38 9c bd 72 1f 0e be b8 b7 5f bd b2 47 ad bd
       -0.07627912 -0.13879183 -0.054618567 -0.084609404
000010 a0 df bb 3b d0 ff 2d be 06 01 bc 3d 41 01 70 be
       0.0057334453 -0.16992116 0.09179883 -0.23437978
000020 28 58 01 be 0d d7 1f 3e 6b 4d ef bd cd 78 63 be
       -0.12631285 0.15609379 -0.11684688 -0.2221405
000030 8d 2a 37 be 2c 6a 58 3d 04 dc 39 3d ed c8 3e 3e
       -0.17887326 0.05283563 0.04537584 0.18631335
000040 7b 42 50 3e c1 59 68 3e d3 d1 0e 3e e7 8d 03 be
       0.2033786 0.22690488 0.13947229 -0.128471
000050 9d 35 38 be 93 b5 62 3e 61 34 60 3e 95 0a 69 3e
       -0.17989202 0.22139578 0.21894981 0.22757943
000060 ba 31 84 3d 6b 9c 02 be 33 b8 51 3e 24 b1 0b bd
       0.06454797 -0.12754981 0.20480423 -0.03410448
000070 ee c0 93 bd d3 3a 08 3e bf 1c 6b 3e 8a fe de bd
       -0.07214533 0.1330369 0.22960185 -0.10888393
000080 d8 92 8b 3c ff d1 2d 3e 00 f7 da ba f2 1e 16 be
       0.017037794 0.16974638 -0.0016705692 -0.14660242
000090 d0 b2 3d 3c 2a 14 b6 bd 86 01 c5 3d 56 52 9b bd
       0.011578277 -0.08890565 0.09619431 -0.07584064
0000a0 1e 79 2a be d8 02 38 bd d1 c2 ea bd a6 0a aa 3d
       -0.16647765 -0.044924587 -0.114629395 0.08302812
0000b0 35 fb 1c 3e 6f 29 6a 3e 86 8e 5f be 46 18 4d be
       0.15330203 0.22867368 -0.21831712 -0.20028791
0000c0 44 c3 c0 bd 22 f2 98 bd 30 c3 52 3c 5a bb d7 3d
       -0.09412244 -0.07468058 0.012863919 0.10533781
0000d0 ec e4 22 3d bc 16 63 be c4 10 26 bd ee 85 2c be
       0.0397691 -0.22176641 -0.040543333 -0.16847965
0000e0 dc 00 0e be ce 8b 0d be b6 5f e6 3d 17 34 27 3e
       -0.13867515 -0.13822863 0.11248724 0.16328464
0000f0 32 ec 66 be ce 54 21 be 27 51 06 3e 88 cb 00 be
       -0.22551039 -0.15755007 0.13116895 -0.12577641
000100 25 b5 11 3e 6d 04 6f be 28 05 e3 3c 75 fa 70 3e
       0.14229257 -0.23341532 0.02771242 0.23533042
000110 d6 cc ad 3d 38 46 96 bc c4 a4 d0 bd ed a4 28 3e
       0.08486335 -0.01834403 -0.101876765 0.16469164
000120 80 b6 14 3c 8e 9d b8 bd 87 29 59 3e 3e fb 20 be
       0.0090767145 -0.09014426 0.21207248 -0.15720841
000130 a0 60 34 be cb a6 59 be 53 7c 13 3e 19 25 31 3e
       -0.17614985 -0.21255033 0.14402895 0.17299308
000140 24 57 0e 3d d8 b0 18 be e7 1d 4f 3e f8 74 bd bd
       0.034751073 -0.1491121 0.2022625 -0.09250826
000150 cb e9 1d 3e 18 25 a3 bc d5 2e 2f 3e 56 37 15 be
       0.15421216 -0.019915149 0.17107709 -0.1457189
000160 5c 71 75 3d 7c 89 7c 3d 5c dc 63 bd 44 96 7d bd
       0.05992256 0.061654553 -0.055630073 -0.061910883
000170 9c d4 3e 3d 04 e9 dc bd c4 64 e6 bd 27 b4 28 3e
       0.04658948 -0.10786632 -0.11249688 0.16474973
000180 90 0c 84 bc 25 33 33 be a2 d7 e0 bd b9 2f 51 3e
       -0.016119272 -0.17499979 -0.10978629 0.20428361
000190 88 84 4a be 00 9a 13 be 72 72 42 be 1c 6e 1b bd
       -0.19777119 -0.14414215 -0.1898897 -0.037946805
0001a0 80 c2 46 bd 93 a1 6e 3e 26 e8 ab 3d d7 fd 26 3e
       -0.048525333 0.23303823 0.08393888 0.1630777
0001b0 bc 13 27 bd 96 8d af 3d 0d 59 4b 3e 7f c3 34 3e
       -0.040790305 0.08571927 0.19858189 0.17652701
0001c0 b0 8f c5 bd f3 35 71 be b9 1a 3e 3e 08 eb ab bd
       -0.09646547 -0.23555736 0.18564881 -0.08394438
0001d0 a4 c7 51 3d db 5b 5c be ee 0c ba 3d 3a ce ba 3d
       0.051215783 -0.21519415 0.090844974 0.09121366
0001e0 70 81 4f be 6c 4e 3d 3d 2a fc 15 be c2 01 98 3d
       -0.2026422 0.046217367 -0.14646974 0.0742221
0001f0 d1 61 0c 3e fc 70 28 3d 6c 77 9a bd 4d 8d 27 3e
       0.13709189 0.041123375 -0.07542309 0.16362496
000200 c8 5d 9b 3c 8a 56 84 bd 6a 3d 83 bd c0 a9 48 bc
       0.018965617 -0.064618185 -0.06408198 -0.012247503
000210 fa b9 9b bd 40 8b 75 3b b7 81 1f 3e 40 b8 18 bb
       -0.076038316 0.0037467033 0.15576826 -0.002330318
000220 8a 6e 22 be df 0b 06 be a0 3a 83 bb a1 f7 10 3e
       -0.1586248 -0.13090466 -0.0040047914 0.14156963
000230 7a 6c cf 3d 23 48 07 3e 78 d2 21 be 2c a3 7d bd
       0.10128112 0.13211112 -0.15802944 -0.06192319
000240 f1 31 5b be c1 a0 31 be a0 ec eb bc 58 9e e4 3c
       -0.2140577 -0.17346479 -0.028799355 0.027907535
000250 f0 b7 13 bc de 6c d5 3d 4a 9e 9a 3d 70 30 3f 3c
       -0.009016022 0.104211554 0.075497225 0.011669263
000260 58 f9 6e bd d8 af c0 3c 14 2e 13 3d cb 75 32 be
       -0.05834326 0.023521349 0.035932615 -0.17427747
000270 e7 29 12 be 89 75 01 3e 8b b7 65 be 24 05 06 bd
       -0.14273797 0.12642492 -0.22433297 -0.032719746
000280 5a dd c9 bd 2f 97 3e be 74 00 2b bd 28 86 2a be
       -0.098566726 -0.1861236 -0.04174848 -0.16652739
000290 19 9d 6c 3e 09 2b 11 3e 8e ba b3 3d 4a 24 c6 3d
       0.23106803 0.14176573 0.08775817 0.0967489
0002a0 62 d9 88 bd b2 dc 3b be 32 f5 3c be 88 e9 bf bc
       -0.066820875 -0.18345907 -0.1845291 -0.023426786
0002b0 91 01 11 3e 50 01 9f bc 74 96 41 bd dc 11 6d 3d
       0.14160754 -0.019409806 -0.047262624 0.05787836
0002c0 f1 b1 3b 3e c4 4d 99 bd 2d e1 02 3e da 41 19 be
       0.18329598 -0.07485536 0.1278121 -0.14966527
0002d0 67 27 2b 3e 81 60 5d 3e a3 68 0d 3e 06 0f 93 3d
       0.1671425 0.21618845 0.13809447 0.071806
0002e0 8a 83 de bd 65 9c 32 3e 44 02 0c 3d 3c cd 14 3d
       -0.10864933 0.17442472 0.03418185 0.03632854
0002f0 bc 9c 1a 3d e1 79 4c be 84 39 47 bd 3b 48 6f be
       0.03774713 -0.19968368 -0.048638836 -0.23367397
000300 b6 c4 9c 3d 70 7e fb bc f1 8b 1c 3e e4 d5 2e be
       0.07654707 -0.030699939 0.15287758 -0.1707378
000310 16 54 95 3d 83 01 23 be 13 12 66 3e f0 be 3d bc
       0.07291429 -0.15918545 0.22467832 -0.011581168
000320 e8 b3 df bc 49 7c 34 3e 50 7e cc bc d4 0a 81 bd
       -0.027307466 0.17625536 -0.024962574 -0.063008934
000330 08 be 35 bd c0 7e 3f be a4 a4 30 3d 48 9c 5e be
       -0.04437068 -0.18700695 0.043125764 -0.21739304
000340 48 30 ac 3c 38 48 1f bd d0 63 23 be 94 f9 0d bd
       0.021019116 -0.038887233 -0.15956044 -0.034661844
000350 ad 99 21 3e fe 01 35 be 45 f9 51 3e 84 d2 c2 bd
       0.15781279 -0.17676541 0.20505245 -0.09512809
000360 b1 95 27 3e a4 67 d3 bd 5c 43 0d be 28 32 6b bd
       0.16365696 -0.10322502 -0.13795227 -0.05742088
000370 67 43 6e be 40 7d 0e bb cd 95 38 3e 8b ba 53 be
       -0.232679 -0.0021742135 0.18025894 -0.20676629
000380 4c c7 63 bd 60 c6 c4 3b b0 07 17 be 13 e8 44 be
       -0.055609986 0.0060050935 -0.14749026 -0.19229154
000390 24 5f 7d bd 73 b5 31 3e 1e 65 94 3d 41 a8 1f 3e
       -0.06185831 0.17354374 0.07245849 0.15591528
0003a0 aa 94 c0 bd 41 c7 5e be cf bb 01 3e 58 b7 bd 3c
       -0.094033554 -0.21755697 0.126693 0.023158714
0003b0 2a ec 70 be 70 26 06 bd 5e 17 ae 3d 30 29 72 be
       -0.2352759 -0.0327515 0.08500551 -0.23648524
0003c0 1c 64 65 be 97 00 3d 3e 94 ab 3e 3d 48 da c8 bc
       -0.2240147 0.18457256 0.04655035 -0.024518147
0003d0 39 60 1c 3e b2 fb c5 bd 63 b7 46 3e 76 ae c7 3d
       0.15271081 -0.09667148 0.19405894 0.09750073
0003e0 c5 10 1e 3e 88 35 c3 3c 7c 7f 0b 3d 04 de 00 bd
       0.15436085 0.023829237 0.034057125 -0.03146173
0003f0 61 47 1b 3e e4 e0 60 3d ac 34 14 bd 08 1a f9 bc
       0.15163948 0.054901972 -0.036183044 -0.03040792

arith.constant6 f4 [1, 2760]
000000 b8 b2 94 bc 67 0f a7 b4 5d 9e f8 bc 47 1a 8c b9
       -0.018151626 -3.111738e-07 -0.030348951 -0.0002672246
000010 de 76 24 3c a0 1a 9c 3b 07 1e 60 3c 6a dd 89 ba
       0.010038106 0.004763916 0.013679034 -0.0010518257
000020 19 b1 7c 36 51 8b af 3c 1a ac cb 33 18 e0 e9 3c
       3.765401e-06 0.021428736 9.484229e-08 0.028549239
000030 30 08 88 bc 76 65 bd bc f3 6d a1 3c e7 3d d2 39
       -0.016605467 -0.02311967 0.019705748 0.00040100442
000040 3e 81 15 bc f0 71 cb bc fd 0b c2 3c cf 78 a4 37
       -0.009125052 -0.024834603 0.023687357 1.960658e-05
000050 57 78 78 3c 83 a6 b8 3c c9 c0 19 36 89 d2 87 bc
       0.01516541 0.022540336 2.2910992e-06 -0.016579883
000060 cc b2 b4 3b d2 12 e4 37 6e 88 12 3d 67 14 f4 3a
       0.0055144783 2.7188482e-05 0.03577464 0.0018621803
000070 bf 31 f1 bc 44 75 34 bc 08 ec 89 3b 6a 8c d8 b3
       -0.029442666 -0.011014286 0.0042090453 -1.0083825e-07
000080 39 e1 03 bc 86 c6 81 bb 03 e3 ee 3c a5 48 09 bc
       -0.008049303 -0.0039604334 0.029160982 -0.008379136
000090 08 4d c3 bb 15 b1 5a b6 dd c3 c2 3c 72 9f 3a 3a
       -0.0059601106 -3.2587607e-06 0.023775036 0.0007119096
0000a0 b2 04 b1 36 91 4a f9 bc 59 c8 10 3d 94 9a c8 bc
       5.2755577e-06 -0.030431064 0.035347316 -0.024487771
0000b0 f2 11 50 3c 41 ab b6 b7 93 7d c0 bb 51 3e 7a 3c
       0.012699591 -2.1775837e-05 -0.0058743446 0.015273646
0000c0 7f 60 cd 3c e9 03 cb 3b 1a d0 f6 3c f7 88 e2 3c
       0.025070427 0.0061955345 0.030128527 0.0276532
0000d0 58 78 ac 3c 98 59 72 ba c0 19 ac 3c 87 2c a2 b6
       0.021053478 -0.0009244918 0.021008372 -4.83316e-06
0000e0 18 9e d6 bc 93 69 40 38 3f c9 21 bd 62 5e 0b b9
       -0.026198432 4.587469e-05 -0.039498564 -0.00013291233
0000f0 70 d8 0f 38 cd f5 ee bb 4e 3c 91 3c 03 fb 97 bc
       3.429543e-05 -0.0072924853 0.01772895 -0.018552309
000100 51 c4 0b bd 88 bf 32 3b 1c 0d 1b bc 56 95 f8 bb
       -0.03412277 0.0027274806 -0.009463575 -0.0075861616
000110 ac 1a 02 3d f8 3c f2 b8 f8 61 aa 3c bc 15 cd 3b
       0.031763718 -0.000115508155 0.020798668 0.0062586945
000120 d0 90 1c bb 29 cf ac 3c df 48 4b 38 3e cd 84 38
       -0.0023890026 0.021094875 4.8466838e-05 6.33248e-05
000130 b0 1c b6 3c 1e 28 c1 bc 07 97 05 3c f8 da fc 3c
       0.022230476 -0.0235787 0.0081536835 0.030866131
000140 ad c8 6b 3c ed 0d 08 bd 70 19 8c 3b 9f fb 6c 38
       0.014391107 -0.033216406 0.0042754933 5.6501125e-05
000150 59 62 86 3c 60 3f de 36 0e 73 d6 bc 8a f1 70 bc
       0.016404318 6.6234934e-06 -0.02617791 -0.014706025
000160 8c 11 91 3c 89 79 38 3b 6a 0d 5a 39 5d f4 59 3c
       0.017708562 0.0028148612 0.00020795097 0.01330289
000170 ef 34 7b bc c5 32 85 bc b5 8d 11 38 ea cf d5 bc
       -0.015332445 -0.01625956 3.470267e-05 -0.026100118
000180 f0 10 25 3c aa 85 15 3c 66 91 0f 3d d3 59 a4 3c
       0.010074839 0.009126106 0.035050772 0.020062363
000190 ab 58 ac 3c 90 71 13 bc df 39 19 bd e7 e2 f3 37
       0.021038374 -0.008999243 -0.037408706 2.9073517e-05
0001a0 1b 52 c1 3c 03 4a 1c bc 8c 91 cd 3c c0 8f a6 bc
       0.023598721 -0.00953913 0.025093816 -0.020332217
0001b0 6e f4 d4 3c a6 de dd 3c 12 96 61 bc 03 1b 01 3b
       0.02599546 0.027083706 -0.01376869 0.0019699938
0001c0 6c ed 82 37 9d d5 19 bd 65 a9 cc bb f2 ce 84 37
       1.5607766e-05 -0.037557233 -0.0062457793 1.5831993e-05
0001d0 ab 06 08 3d 80 51 ec bc c5 62 e8 bb a9 f6 e9 bc
       0.033209484 -0.028847456 -0.0070918524 -0.02856
0001e0 84 08 4c b7 c7 23 d2 bc 8d fa 17 bb b0 7f e0 bc
       -1.216133e-05 -0.025651826 -0.0023190111 -0.027404636
0001f0 c4 cb 01 3d 95 6c cd 3c 0c 62 50 b7 ea 04 05 3d
       0.031688467 0.02507619 -1.2420594e-05 0.03247539
000200 e3 3c 2c 3c 36 be 49 bc 7e 74 b6 3b ec dd 19 bb
       0.010512563 -0.012313416 0.005568086 -0.0023478223
000210 ff 2b ff bc cb 1d 3f 3c c4 6a 8e bb 7a b9 ea 3c
       -0.031148909 0.011664818 -0.0043462235 0.028652895
000220 12 1d d2 bb 0d 4e 9d 3b fd 41 11 bd 34 49 d4 37
       -0.006412157 0.004800564 -0.035463322 2.5306457e-05
000230 45 c3 e9 ba a6 38 04 3d 4e 80 f7 3c e5 11 93 b5
       -0.0017834684 0.032280587 0.030212548 -1.0957561e-06
000240 1e 8c d4 bb b0 ac 88 bc 29 bb 10 bc dc 88 e2 3b
       -0.00648643 -0.016683906 -0.008833685 0.0069132876
000250 3b 83 ca 3c 0f 87 aa 3c 77 64 07 bd a3 02 f6 38
       0.024720779 0.020816354 -0.033054795 0.00011730685
000260 34 14 ba 3c 0b 69 e5 bc 3e 9e 4e bb 85 2f 1e 3c
       0.022714712 -0.02800419 -0.0031527425 0.009654884
000270 02 0f 99 bc ed f8 ef 3c 67 0d 60 3c 85 48 e9 3c
       -0.018683914 0.029293502 0.01367507 0.028476963
000280 bf 73 bf 3c c0 38 16 bb 9a 33 c6 3b e7 88 23 bc
       0.023370622 -0.002292201 0.006048632 -0.0099813705
000290 39 ab 1d bd 74 6a a7 bb b1 97 ea bc 46 67 d0 3c
       -0.03849337 -0.0051091257 -0.028636785 0.02543987
0002a0 0e b4 df 3c db 47 0d bd 56 1c 1d 3d e9 e9 e2 bc
       0.027307536 -0.034492355 0.0383571 -0.027699428
0002b0 a4 47 15 bd 3c a1 e7 bc 37 0e 10 3d a8 7c aa 3a
       -0.036445275 -0.028275125 0.035169806 0.0013007121
0002c0 73 11 98 bc 81 40 f5 bc 14 57 74 3c 40 5e d8 3b
       -0.018563008 -0.029937984 0.014913339 0.0066030324
0002d0 3b e8 85 3c 65 94 15 bd cd 32 24 3c 07 3e 16 bc
       0.016346088 -0.036518473 0.0100218775 -0.009170062
0002e0 5e a8 4e 3b b9 a5 8a 3c 35 7b bb bc 4c 46 c5 bc
       0.003153346 0.016924726 -0.022885898 -0.024081372
0002f0 e1 65 ab bc 84 d2 b8 3c 19 c4 1a bc c7 97 e9 b6
       -0.020922603 0.02256132 -0.009446167 -6.9616103e-06
000300 99 a5 90 3b d7 5e d8 bc f0 07 1b b7 c8 ac a0 b6
       0.004414272 -0.02641241 -9.240568e-06 -4.788486e-06
000310 9d ab 03 3d bf 7b 0b bd d6 6a 31 3c 79 98 9e b8
       0.032146085 -0.03405356 0.010828694 -7.562427e-05
000320 be f3 36 3c 44 cf 01 3d 54 5a 1b bd 0d 9d 1c b8
       0.011166511 0.031691805 -0.03792794 -3.7339563e-05
000330 0a 94 b4 bc 27 f6 82 36 a2 85 06 3d 55 f9 08 bd
       -0.022043247 3.902958e-06 0.032842286 -0.033440907
000340 01 ab 05 3b 73 8b 9b bc b2 f2 90 3c a3 9e fc 3c
       0.0020396116 -0.018987393 0.017693851 0.030837363
000350 77 c0 c7 bc 8b 04 9f bc 7c 9a 9c 3b 03 b2 d6 3c
       -0.024383767 -0.019411346 0.004779158 0.02620793
000360 34 a6 da bc a7 0c 04 3d 46 d5 04 3d 44 e1 0f b7
       -0.02669058 0.03223863 0.032429956 -8.575913e-06
000370 c5 fa d5 ba a0 e6 d9 3c 65 d5 eb bc 77 92 30 3b
       -0.0016325345 0.026599228 -0.028788278 0.0026942769
000380 86 5e f4 36 d8 d6 a8 39 80 d8 7d 37 96 42 0e b6
       7.2827706e-06 0.00032203528 1.5130383e-05 -2.1198407e-06
000390 a8 d1 6d 3c 54 77 96 3c 2e c9 21 38 66 f8 5d 3b
       0.014515318 0.018367447 3.8572754e-05 0.003386998
0003a0 e0 27 fa bc 7a a7 c4 bc 8e 4e fa bc ae 51 16 bd
       -0.030536592 -0.02400564 -0.030555036 -0.03669899
0003b0 e1 03 97 b9 52 8a f0 b9 4e 4f 0d bd 39 14 2e 3c
       -0.00028803854 -0.00045879424 -0.03449946 0.010624939
0003c0 20 85 f0 bc 37 4e 0d 38 f5 f4 b7 bb 0a 95 60 bc
       -0.029360354 3.3689863e-05 -0.005613918 -0.013707409
0003d0 7c d4 0a 3d 71 22 88 37 60 80 b9 b3 89 94 95 3c
       0.033894047 1.6228501e-05 -8.638085e-08 0.018259304
0003e0 ac 3e a4 3c 35 2f 90 3c 93 15 28 3c c4 47 f8 bc
       0.020049416 0.017600635 0.01025905 -0.030307658
0003f0 83 21 ab b5 89 e1 61 bb 7e 9d b6 3c 12 e8 67 3c
       -1.2750246e-06 -0.0034466705 0.022291895 0.014154451

arith.constant7 f4 [2760, 1]
000000 4e 1f bb 3d a2 32 fc 3d b9 28 02 3e a4 ac 7c 3d
       0.0913683 0.12314345 0.12710847 0.06168808
000010 c0 4d 87 bd 70 2b 4b 3e 5f 0a 44 3e a2 b1 05 be
       -0.066066265 0.19840789 0.19144581 -0.13056043
000020 7c cc c6 3c c5 7b 6f 3e 3b d1 80 3c 35 15 64 3e
       0.024267428 0.23387058 0.015724769 0.22273715
000030 30 6f 67 bd 0b 50 6e 3e 01 80 bf 3d 91 38 06 bd
       -0.05650252 0.23272721 0.09350587 -0.03276879
000040 54 47 1a 3a a1 1f f5 3d 35 84 e1 bd ac 5b 55 be
       0.00058852625 0.11968923 -0.110115446 -0.20835751
000050 4a 2f 1a be 30 fa 31 be 66 1b 44 3e 76 2a df 3d
       -0.15057102 -0.17380595 0.19151077 0.10896771
000060 c5 43 ae 3d 76 5d 04 3e c0 9a 2f 3e 9b c9 37 3d
       0.0850902 0.12926278 0.17148876 0.04487
000070 60 b9 34 3e 4a a9 9c 3d b0 a2 c8 bd ab 85 fa 3b
       0.1764884 0.07649477 -0.09796655 0.007645329
000080 bb 33 54 bd 7d ae 1b 3e 53 4e 6a be 3e cd b0 bc
       -0.051807147 0.15203281 -0.22881441 -0.021582242
000090 d0 cc 7c bd f8 b2 45 3e 50 91 d7 3b 0d 44 15 be
       -0.061718762 0.19306552 0.006578602 -0.1457674
0000a0 be 4e 2d 3e dc c6 41 be f7 e8 dd 3c 79 3c 52 3e
       0.16924569 -0.18923515 0.027088625 0.20530881
0000b0 d4 63 c5 bd 46 f9 bd 3d 4f 24 bc 3c 9b f1 42 bd
       -0.09638181 0.09276061 0.022966532 -0.047593694
0000c0 09 72 33 3e 38 08 37 bc f4 40 5f 3e 0e e0 58 3e
       0.1752397 -0.011171393 0.21802121 0.2117922
0000d0 66 c7 fd 3d bf 26 d9 bd 3c 4e 50 3e 5b 1a 00 3e
       0.12391548 -0.10603093 0.20342344 0.12510054
0000e0 f4 8b 99 bd 22 9e 16 3e 8b 47 5b 3e 3c 2e 5f 3e
       -0.07497397 0.1470876 0.2141401 0.21794981
0000f0 d1 fb 65 3e 02 4d a1 bd 3e c2 28 be 00 23 40 be
       0.22459342 -0.07876016 -0.16480348 -0.18763351
000100 9e 5e 0d 3e e2 d6 17 3e 97 e1 51 3c 14 8c 8b 3d
       0.13805625 0.14828065 0.0128101325 0.06813827
000110 88 be 05 3e 66 51 63 3c cf e3 13 3e c9 91 8c bb
       0.13060963 0.013874387 0.14442371 -0.00428984
000120 2c d2 8b bd b1 37 11 3e 43 e4 47 3e b8 09 6c 3e
       -0.068271965 0.14181401 0.19520669 0.23050582
000130 ff 6c ed 3d e1 9a 15 3e c2 8e 2d 3e 06 c2 1b bd
       0.11593055 0.14609863 0.16948989 -0.038026832
000140 bc f6 10 3e 09 2c 1d be 18 e8 09 3e e7 50 5b 3e
       0.14156622 -0.1534883 0.13467443 0.2141758
000150 09 2f 6f 3e 02 76 17 be 90 af ba 3c 54 0b 58 be
       0.23357786 -0.1479111 0.022788793 -0.21098071
000160 78 d8 15 bd 82 fa 4f bd 1c e9 33 3e 1f e6 8a bd
       -0.036583394 -0.050776012 0.17569393 -0.06782173
000170 7e 14 51 3e 33 5b 34 bd 2f 46 6e 3e 29 f2 9e 3b
       0.20417973 -0.044032287 0.2326896 0.004850645
000180 9f 64 23 3e 12 4b 31 3e ca 42 9e bd f4 a0 c1 3d
       0.15956353 0.17313793 -0.07727583 0.094545275
000190 0b e9 68 3c ee 57 de bd 7e 46 2d 3e 98 d7 1a 3e
       0.014215718 -0.10856615 0.16921422 0.15121305
0001a0 8a 1c 22 be eb cb 94 3c 28 21 48 3e c2 67 a2 3b
       -0.158312 0.018163642 0.19543898 0.0049562166
0001b0 f8 46 d4 3d 2d 02 0e 3e 5a eb 97 3d d9 1f 38 3e
       0.10365099 0.13868017 0.074179366 0.17980899
0001c0 43 6b ed 3d 01 11 46 3e 69 a3 d4 3d d0 63 b4 3d
       0.11592724 0.19342424 0.103827305 0.088081
0001d0 20 14 19 be 7b 30 cf bd 05 48 4e 3d f0 07 32 3e
       -0.14949083 -0.10116669 0.050361652 0.1738584
0001e0 33 30 78 bd 65 cf 1e be 18 f1 5b 3e 7e 29 d6 3d
       -0.06059284 -0.15508802 0.21478689 0.10457133
0001f0 e0 ad 02 3d f4 3f 1a 3d 77 bd 26 bd 86 3b c8 bd
       0.0319041 0.037658647 -0.04070803 -0.09776978
000200 90 43 ba bc db 4e 22 be 02 26 d2 3a 74 dc 07 3e
       -0.022737294 -0.15850393 0.0016033056 0.1326769
000210 14 a4 40 3e a8 3c a6 bc ad 46 d7 bd b3 3e e4 3c
       0.18812591 -0.020292595 -0.10511527 0.027861929
000220 dd df be bd a5 66 36 3e 39 98 36 3e 4a ff 65 3e
       -0.09320042 0.17812593 0.17831506 0.22460666
000230 8b 60 4c 3d 4f 7a 71 3e d8 a7 c3 bd 95 3a 2a 3d
       0.049896758 0.23581813 -0.09553498 0.041559774
000240 e0 98 72 be 76 27 ea 3d 6b 9b 20 3e f7 ec f7 bd
       -0.2369113 0.11433308 0.15684287 -0.12105744
000250 21 6f a9 3d 63 0a 4c 3e 82 50 5c bd 4d 6e d7 3d
       0.08273149 0.19925837 -0.053787716 0.10519085
000260 a8 50 49 be 01 61 55 bd 65 e6 e6 3d cc 7b 89 bc
       -0.19659674 -0.052094463 0.11274413 -0.016782664
000270 88 26 01 3c 8b 6c 9b bd d3 cf bd bc 21 70 1b 3e
       0.007882722 -0.07589062 -0.023170387 0.15179493
000280 ad c4 37 be d7 77 ec bd d1 60 ef bd 5e d0 da 3c
       -0.1794612 -0.11546295 -0.11688388 0.026710685
000290 3a 6d d9 bd 9a 56 48 3e 50 08 0a be a2 56 8e b8
       -0.106165364 0.19564286 -0.13479733 -6.787224e-05
0002a0 c7 3c 25 be 64 35 33 be b7 03 47 be 68 a0 2c 3e
       -0.16136466 -0.17500836 -0.19435011 0.16858065
0002b0 98 62 62 3e 6a 9c 23 3e 37 0e 4a be 69 a5 b2 3d
       0.22107923 0.15977636 -0.19731985 0.08722956
0002c0 b3 51 94 bd e7 07 10 be 61 23 35 be c9 09 aa bd
       -0.072421454 -0.14065515 -0.17689277 -0.083026476
0002d0 da 4d bc ba b9 1b cb bd e3 c3 1b 3e 84 bb 3b be
       -0.0014366463 -0.09917397 0.15211444 -0.1833325
0002e0 68 ee de 3c b5 bf 9a 3d 51 d3 24 3e 86 d6 12 3e
       0.02721329 0.075560965 0.16096236 0.14339647
0002f0 7e 84 a2 3d 4f 56 4b be 57 ad 5f 3e 61 31 46 bd
       0.07935427 -0.19857143 0.21843468 -0.048386935
000300 c5 0f d3 3d f3 3b 32 be 9f 82 23 be c7 37 18 3e
       0.10305742 -0.17405681 -0.15967797 0.14865027
000310 2b 32 61 3e 4e 7e 56 3e bf 37 84 3d af 77 4f 3e
       0.21991794 0.20946619 0.06455945 0.202605
000320 8e b6 4b be f7 51 2c 3e 48 b3 ef ba 53 62 1b be
       -0.19893858 0.16828142 -0.0018287683 -0.15174226
000330 01 ac 51 3e 31 3f 2b 3c cb 7d 39 3e 54 af 00 be
       0.2047577 0.010452078 0.18114392 -0.12566882
000340 6f 9c 3c 3c 4d 01 d3 3b c4 7c 3a bd 64 0d 5f 3e
       0.011511906 0.006439364 -0.045529142 0.21782452
000350 e3 af 72 be 5a 9d 6a bd f9 72 0b be d0 e8 6e 3d
       -0.23699908 -0.05727897 -0.13618077 0.058327496
000360 5a 79 04 3e 65 64 ad 3d 75 40 60 be 92 cc 11 3e
       0.12936917 0.08466414 -0.21899588 0.14238194
000370 be b9 18 be 0b b2 82 3d c3 70 ff bd 78 2e 30 be
       -0.14914605 0.06381615 -0.124726795 -0.17205226
000380 13 83 0f 3e 38 cd 72 3e 1d 91 e6 bd 24 cf 01 3d
       0.14014845 0.23711097 -0.11258147 0.031691685
000390 65 b3 d3 bb a1 51 2e 3e 94 49 22 3e c3 2c 26 3e
       -0.0064605945 0.17023326 0.1584838 0.16228013
0003a0 1e bc a5 3d 8c 22 03 be 60 e8 53 3e ac 67 52 3e
       0.08092521 -0.12806147 0.20694113 0.2054736
0003b0 3b 94 12 3d b3 05 33 3e c5 db 8b bd 30 81 a0 bb
       0.035785895 0.17482643 -0.06829027 -0.004898213
0003c0 99 d0 cb bb 27 8e 70 bd ff 35 be bd 21 15 46 be
       -0.006219935 -0.058729317 -0.09287643 -0.19343998
0003d0 92 0f b4 bc 18 37 13 3e 69 ef 08 be e1 41 c7 3d
       -0.02198008 0.14376485 -0.13372578 0.09729362
0003e0 1a 0d 21 3e 12 74 15 3e 80 f9 05 3d 0b c1 a0 3d
       0.15727654 0.14595059 0.032708645 0.0784932
0003f0 e5 9d 18 3d 9f 72 44 bd e9 24 dd 3d 26 be 56 bd
       0.037259955 -0.047960874 0.10798056 -0.052427433

arith.constant8 f4 [2760, 1]
000000 60 7e d1 bb 40 f1 47 3b af d8 e7 bd d7 4f 70 3e
       -0.006393239 0.0030508786 -0.11320626 0.23467956
000010 5d 53 0d 3e 54 6b 07 3d 9b b7 64 be ca 57 8d 3d
       0.13801332 0.03306134 -0.22335665 0.0690151
000020 ec 79 66 be b2 7e b6 3d fe 1d 9a 3d 00 87 4e bd
       -0.22507447 0.08910884 0.07525252 -0.050421715
000030 c8 97 70 be 54 ba 50 bd 05 dc 06 3e c3 87 5d 3e
       -0.234954 -0.050958946 0.13169868 0.2163382
000040 b0 c1 65 be 71 95 27 3e ba 2d bb 3d b4 62 05 3d
       -0.22437167 0.16365601 0.09139581 0.032564834
000050 70 ca d7 bc b3 ca 4f 3e 93 fc 31 3e df a8 18 3e
       -0.026341647 0.20292167 0.17381506 0.14908169
000060 04 81 37 3d fe 6d cf bd 4f a3 1e be 73 eb 02 be
       0.044800773 -0.10128401 -0.15491985 -0.12785129
000070 9a 75 54 be 18 c9 e1 bc 92 cf ce bd c4 03 45 bd
       -0.20747986 -0.02756171 -0.10098185 -0.048099294
000080 f9 8f 3d 3e de 0d 55 be 7f 1e 3b be ae 2a 95 bd
       0.18511952 -0.20806071 -0.18273352 -0.07283531
000090 3e 24 ae bd 92 5b f1 3d 20 83 d3 bd c8 3c cb bc
       -0.085030064 0.11785044 -0.103277445 -0.024809256
0000a0 10 10 34 be 3c d0 8e bd 1b 0b 69 3e 37 51 3c 3e
       -0.17584252 -0.06973311 0.22758143 0.18390356
0000b0 b4 3d 19 be 3a 27 4f be e9 97 17 3e 66 25 b2 3d
       -0.14964944 -0.20229807 0.14804043 0.086985394
0000c0 d7 7f 70 3e b2 e8 f6 3d b2 6f fe 3d 45 6f 40 3e
       0.23486267 0.12056102 0.12423648 0.18792446
0000d0 40 7d 89 bb 4e 2e 68 be af ae 19 3e bd 32 2a be
       -0.004195839 -0.22673914 0.15008043 -0.16620918
0000e0 41 5a fd bd 63 63 4a 3e 04 e7 27 be 6a 4e 3d be
       -0.1237073 0.19764476 -0.16396719 -0.18486944
0000f0 64 ce 37 3d 00 fd 5b bc bc 2b 1c bd 82 ee 72 be
       0.044874564 -0.013427019 -0.038127646 -0.23723796
000100 63 76 2c 3e 76 14 fc bd 52 ea ca 3d 25 88 41 3e
       0.16842036 -0.1230859 0.09907974 0.18899591
000110 77 82 55 3e 78 51 45 be 94 50 75 3d 2e f7 90 3d
       0.2085055 -0.19269359 0.0598913 0.07078396
000120 21 70 18 3e 2b 16 45 be 25 28 6d 3e 60 ac 6f bd
       0.14886524 -0.19246738 0.23159845 -0.058514
000130 3f fb 57 3e fd 47 2a 3e 72 8c b8 3d ae bb 8e 3d
       0.21091937 0.16629024 0.09011163 0.06969391
000140 98 c0 ea 3c 43 6d 4a 3e d5 6d 24 3e e8 d5 07 bd
       0.028656289 0.19768243 0.16057523 -0.03316298
000150 29 26 1a 3e 29 fc 4e 3e 64 ad 45 bd a6 58 87 3d
       0.1505362 0.20213379 -0.04826106 0.06608705
000160 c3 6a 0a 3e 60 62 1d be dd b0 6b 3e 1e 30 e8 3d
       0.13517289 -0.15369558 0.23016687 0.113373026
000170 46 a4 15 be b0 8e 37 3c e1 ec 65 3e 80 74 0a be
       -0.14613447 0.011203453 0.22453643 -0.13521004
000180 df 3d 73 3e 64 54 38 be 10 a6 4b be 6a aa c6 bd
       0.2375407 -0.18000942 -0.19887567 -0.09700473
000190 2f 9a 5f 3e 11 89 0d 3e 49 31 64 3e e5 6f 67 3e
       0.2183616 0.13821818 0.22284426 0.22601278
0001a0 5e ca fe 3d 8d 67 72 3e 46 b2 2c be 72 0e 92 3d
       0.12440942 0.23672314 -0.16864881 0.071316615
0001b0 44 5a 28 bd e8 29 e4 bc b8 db c6 bc b7 0e 70 3e
       -0.04110171 -0.027852014 -0.024274692 0.23443113
0001c0 62 12 43 be d1 b7 4f 3e 2a 51 a9 bd 20 42 ab 3b
       -0.19049981 0.20284964 -0.08267434 0.0052263886
0001d0 f4 7c 0e 3d ac c9 1a be 62 79 c3 bd c2 19 95 3d
       0.034787133 -0.15115994 -0.09544636 0.072803035
0001e0 e8 59 7c bd b9 90 46 be a2 18 e4 3d 2f c4 64 3e
       -0.06160918 -0.19391145 0.11137511 0.22340463
0001f0 68 d9 88 bd 10 28 a5 bc ce cc f8 3d 62 10 a3 3d
       -0.06682092 -0.020160705 0.121484384 0.07962109
000200 25 71 4e be 20 61 9f 3b 31 cb 1d be bc 5f bd bd
       -0.20160349 0.004863873 -0.15409543 -0.092467755
000210 d4 ff 32 bd 2a 25 93 3d f6 a6 8a 3d b0 b1 24 bc
       -0.043701008 0.07184823 0.067701265 -0.01005213
000220 90 25 33 bc 8e 1e 32 be e3 09 27 3e 63 67 28 3e
       -0.010934249 -0.17394468 0.16312365 0.16445689
000230 38 44 50 be 10 33 e7 bd 5e 0b f0 3d 48 99 8c bd
       -0.20338523 -0.11289036 0.11720918 -0.068651736
000240 44 66 cb bd bc c0 44 bd 4f d1 11 3e c4 c5 77 3d
       -0.09931615 -0.04803537 0.14240001 0.06049134
000250 84 a4 19 be 98 77 8d 3c 98 a5 ec 3c 8a b4 b8 3d
       -0.15004164 0.01726894 0.028887555 0.0901881
000260 4b ba 56 3e 74 5f 76 3d 2f c3 53 3e aa d2 f7 3d
       0.20969503 0.060149625 0.20679925 0.12100728
000270 aa 4e 1b be 9c c0 03 be 24 d6 5b 3d 7c 81 6d 3d
       -0.15166727 -0.12866443 0.053671017 0.057984814
000280 e2 8c da bd 95 c6 2c be 72 b3 63 be 8d b1 2d 3e
       -0.106714025 -0.16872628 -0.22236422 0.16962261
000290 7c 3d 0d be 4c 51 ae bd 93 07 01 be 8c cd d7 bd
       -0.13792986 -0.085116 -0.12600546 -0.10537252
0002a0 8f db 19 3e 10 2f d5 bc 35 4e 06 3e aa a5 af 3d
       0.15025161 -0.026023418 0.13115771 0.0857652
0002b0 05 43 4e be 32 fd 5f be 3f 36 31 3e 00 06 1a be
       -0.20142753 -0.2187393 0.1730585 -0.15041351
0002c0 d6 ce b5 bd cd a6 43 3e d2 6e ba 3d 3f 1a 34 3e
       -0.088773414 0.19106598 0.091031685 0.17588137
0002d0 9a 40 a8 3d 82 47 e2 3d 32 58 b9 3d e3 92 0c 3e
       0.08215447 0.11048795 0.09050025 0.13727908
0002e0 6f 27 13 3e c2 6f 4b be 37 a2 48 3e c6 6d 9e 3d
       0.14370511 -0.19866851 0.1959313 0.07735781
0002f0 e5 f0 34 be 94 e0 f6 bd 7a 2e 98 3d 56 95 eb 3d
       -0.17670019 -0.12054554 0.0743074 0.11503093
000300 00 0e 9b 3a 3f 77 51 3e 80 e4 84 bc f0 e4 4d be
       0.0011829734 0.20455645 -0.016222239 -0.20106864
000310 7c b2 20 be 24 44 04 3d 83 ef 48 3e d0 f3 28 be
       -0.15693086 0.032291546 0.19622616 -0.16499257
000320 e3 32 3f 3e 57 69 f1 bd 98 d1 9e 3c 31 8a 47 3e
       0.18671755 -0.1178767 0.019387051 0.1948631
000330 c0 6b 75 bb 8f a8 e9 bd 86 be 45 be fe 09 72 be
       -0.0037448257 -0.11409103 -0.1931096 -0.23636624
000340 ae c2 47 be e0 b6 c1 bc d4 88 43 3d f3 89 6d 3e
       -0.19507858 -0.023646772 0.04773791 0.23197155
000350 60 8f 3d bd 42 3e 90 3d 16 28 e6 3d 73 24 2a 3e
       -0.04627931 0.07043125 0.112381145 0.16615467
000360 22 d5 1a be 19 fe 6c 3e 40 56 04 bb 3f 26 2a 3e
       -0.15120366 0.23143806 -0.002019301 0.16616152
000370 8c f4 7c bd fc 7c 6d bd 47 92 4c 3e b4 ef 1d 3d
       -0.061756656 -0.057980523 0.19977675 0.038558677
000380 dc 04 94 bd e4 f3 97 bd f4 77 50 3d d4 79 9c bd
       -0.07227489 -0.07419565 0.050895646 -0.07640424
000390 eb fb 3c be 6f cc 34 be aa 2d e2 3d b2 90 d1 3d
       -0.18455474 -0.1765611 0.11043866 0.102326766
0003a0 90 b9 76 3c e2 56 63 be 8c 5a 32 3d 45 cd 14 3e
       0.01505889 -0.22201112 0.043543383 0.14531429
0003b0 fd 1b 52 3e ab 78 12 3e 94 0b 54 3d 25 9c 00 3e
       0.20518489 0.14303844 0.051768854 0.12559564
0003c0 5e 97 bf 3d a4 a0 74 3d 93 b1 04 3e d2 c9 65 be
       0.09355043 0.05972351 0.12958364 -0.2244027
0003d0 bc c2 5d bd 10 09 65 bc e4 25 de bd 1a 45 d7 bd
       -0.05414079 -0.013979211 -0.10847071 -0.10511227
0003e0 b5 ea 3d 3e 95 d7 18 3e 99 1c 67 be 72 9b f1 3d
       0.18546565 0.14925988 -0.22569503 0.11797227
0003f0 bd 40 46 3e 18 2b 2b be 98 91 f6 3c fc 48 44 3d
       0.19360633 -0.16715658 0.030098721 0.047921166
